last_brain.pth (torch, 7183 bytes, 12 tensors)

fc1.weight f4 [30, 5]
00000000: 52c8 b13e fbb7 253e add3 d93e 21d4 86be
00000010: 119e 053f e8c3 c63e f784 3fbf b99c c73d
00000020: 86ae 983c ddca 81bd 7bea 56be 5054 453f
00000030: 2bee ebbe 5b78 813e e6e2 1e3e f9e6 cb3d
00000040: adfa 953e 74af 2f3e 9357 803e 3737 9f3e
00000050: 2898 253e dc79 b53e 047f 273e 7660 973f
00000060: 5cc3 7bbf 902d e43d 73c9 cebe d8c2 c53d
00000070: b85c 7fbd 280b acbd 374f 31be 6c68 5f3d
00000080: 6c7f d33d 5313 0c3f 9a15 32be 4392 673e
00000090: 62ef f8bd 6631 a13b cce8 e53e 9ed3 1fbf
000000a0: be8f 9e3d 1fff 743e cb21 bf3d f8d7 113f
000000b0: df92 c0be 0f41 66be 14c3 f9bd d841 94bd
000000c0: 8e3b 94be 0647 003e 1b13 ec3b 8418 793d
000000d0: ad8e 90be 9fc5 423e fbf4 c1be d6f0 e2be
000000e0: 1ee6 553d 6bbb 153f a2ca a23e 20da 003f
000000f0: 4d5e 513e 46d7 c93d d0fc 073f 17cb 7fbe
00000100: dd14 273f abcb 9abe 25ce 10be 3d90 923e
00000110: e1a4 25be 594d a73c 87a0 ef3d d159 48be
00000120: 1790 123e 9631 d5bd b8e0 3c3e d35f a3be
00000130: 1d05 f9be e74e 25be 873d c03e 9c2d 8cbf
00000140: 7124 22be 6305 10bf 3c34 913e 0cc4 1a3d
00000150: bdfc 6bbe 8436 e2be 5fe8 22bf b89b cf3e
00000160: 1230 19be bb9e 94be acff f23e 65cc 133f
00000170: c7c4 033f 9ffa 08bf 6d96 2a3f 31da 88be
00000180: 4071 3c3e 6fe2 633e 0d7b 703e 968e dabe
00000190: ad76 1c3f 35d3 c03d 4294 423f 116a ee3e
000001a0: 924f 0dbf b423 833e 1c93 4cbd eabd 723e
000001b0: 0f54 af3d 447c 4b3e 26e6 a1bd 5172 023e
000001c0: 2509 be3e 0285 f6be c30c 55be 5315 24bf
000001d0: 33bc 543d 0ee8 a4be 4430 8f3e 70f6 3fbd
000001e0: 7782 623e f0f0 2c3f 8a7e 033f 679a 04bf
000001f0: d5c9 193e 88de 9fbd 0037 21bf b5a5 e73e
00000200: f09e ce3e 9d36 263e e186 b73e 0ca8 0b3d
00000210: c2af 273e 6191 aabe 580e fe3d da3a 043f
00000220: 31ff b73e 4b32 f7bd 85f4 1ebe 071e d03e
00000230: 81f0 243e 39a3 b73e 9063 e0be c1da e83e
00000240: 0172 a13e cc81 3f3e 8561 e0be 002b f1ba
00000250: 9e79 85be 9c0d f1bd
0.34723145 0.16183464 0.42544308 -0.26333717 0.52194315 0.3882134 -0.74812263 0.09746689
0.018637907 -0.06337521 -0.20987885 0.77081776 -0.46080145 0.25287136 0.15516242 0.09956164
0.29292813 0.17156774 0.25066814 0.31096813 0.16171324 0.35444534 0.16357046 1.1826313
-0.9834497 0.11141503 -0.4038807 0.09656304 -0.062344283 -0.084005654 -0.17315374 0.054542944
0.10327038 0.54716986 -0.17391053 0.22614388 -0.12155034 0.004919219 0.44904172 -0.6243228
0.077422604 0.23925446 0.09332617 0.5697017 -0.37612054 -0.22485755 -0.12195411 -0.07239121
-0.28951687 0.12527093 0.007204426 0.060814396 -0.28233853 0.19020699 -0.37882218 -0.44324368
0.05222141 0.584891 0.31795222 0.5033283 0.20446129 0.09855513 0.53120136 -0.24979816
0.6526621 -0.3023351 -0.14141138 0.2862567 -0.16176178 0.020422624 0.1170054 -0.19565512
0.14312778 -0.104098484 0.18445098 -0.31909046 -0.48636714 -0.1614338 0.37546942 -1.0951419
-0.15834214 -0.5625822 0.28360164 0.03778462 -0.23045631 -0.44182217 -0.6363582 0.4054849
-0.14959744 -0.29027352 0.47460687 0.57733756 0.51472133 -0.5350742 0.6663578 -0.26728967
0.18402576 0.22254346 0.2348444 -0.4268691 0.61118585 0.094152845 0.76007473 0.46565297
-0.5519954 0.25613177 -0.049944982 0.23705259 0.08560955 0.19871622 -0.079052255 0.12738921
0.37116352 -0.48148352 -0.2080565 -0.6409504 0.051937293 -0.32208294 0.2796651 -0.04686588
0.22120081 0.6755514 0.5136496 -0.517981 0.15018399 -0.07806116 -0.6297455 0.45243612
0.40355635 0.16231771 0.35845092 0.03409581 0.1637564 -0.3331404 0.124050796 0.516523
0.35936883 -0.120701395 -0.15522964 0.4064791 0.1610737 0.35866717 -0.4382596 0.45479396
0.3153229 0.18701857 -0.43824401 -0.0018399656 -0.2606935 -0.11770174

fc1.bias f4 [30]
00000000: 0dfe 11be 9bb6 133f bdff febb b72d f4bd
00000010: b336 8fbd de76 89be 8e76 3a3e 9c6c bbbd
00000020: 799d 4bbd 36b2 b5be b6d7 e1be 53bc 5e3e
00000030: 5a79 36be f8af 273e 41d6 bdbe e98d 703e
00000040: ef11 573f 4854 0f3f 8d63 28be 375a 1f3e
00000050: 19a8 0a3e 4d78 063f 5cca 0b3f 8ba9 3c3f
00000060: d0ad 133f e1d9 103f 0e77 143d 3b8a c93d
00000070: b37b 9e3e 7e37 b5be
-0.14257069 0.5770051 -0.007781951 -0.11922782 -0.06992855 -0.268485 0.18209288 -0.09151575
-0.049710725 -0.35487527 -0.44109887 0.21751527 -0.1781973 0.1637572 -0.37077525 0.23491634
0.8401174 0.5598798 -0.16444226 0.15561758 0.13540687 0.52527314 0.5460565 0.736962
0.5768709 0.56582457 0.036246352 0.098408185 0.3095375 -0.353939

fc2.weight f4 [3, 30]
00000000: efb2 e4bd fe85 cb3d 0448 ca3e 9123 63bc
00000010: bbe9 12bf 9009 643d 3cbb 34bd 96aa c2bd
00000020: 700b 78be 7e32 863d e337 a13d 1b62 1b3f
00000030: 2d46 e8be e5a0 b33d fbb8 183d 4096 51bf
00000040: 519f 213f c2c9 273f a898 88be f941 cb3c
00000050: c5bb a7be 1fd3 ddbe 52b0 acbe ffec 2b3f
00000060: 85d8 8ebe 3e70 a03e d492 d3bc 5573 d4be
00000070: 586e b93c b8e5 5dbd e0d1 42bd cf6a 563f
00000080: cfa8 7c3d d714 bcbe 7e08 01bf d616 2cbe
00000090: 6828 95be e63b 11bf 9841 c4be cbc0 9b3e
000000a0: c048 04bc 0608 f6bd b8c2 c7be 9bd2 efbc
000000b0: 71e7 52bd d7ba e6be ade1 313f a35b ab3e
000000c0: 8071 4dbe 0f05 02bf 8f37 4b3b 2430 2a3d
000000d0: 1450 3abe d346 933e f5b1 9cbe 7c72 fc3e
000000e0: cb0a 3dbe 782b eabd 6ef4 01bf 3cdc 233e
000000f0: 7da1 bcbe 4e31 f1bd 35dd 613f e3e7 9fbd
00000100: 6984 63be ae44 853d cbb0 663c b69e d4be
00000110: fd73 c1be 2c69 de3d c699 e73e f0da 803e
00000120: cb52 bebe 49f2 d63c ae56 95bd 814c 40be
00000130: d94a 913e 1f84 3f3e 9034 91be fe1d 4c3e
00000140: 3a37 0dbf 0420 a0be ff1f c3bd 9756 143f
00000150: 7e88 083d eba5 61bd cd2e c1be 1734 b4be
00000160: 032f 963e 4ca6 20be
-0.111669414 0.09937666 0.3950807 -0.01386346 -0.57387894 0.055673182 -0.044123873 -0.09505193
-0.24223113 0.06552599 0.07871988 0.6069657 -0.4536604 0.087709226 0.037285786 -0.8186989
0.6313372 0.65542233 -0.26678967 0.024811732 -0.32760444 -0.43325135 -0.33728272 0.671585
-0.27899566 0.31335634 -0.025826849 -0.4149424 0.022635624 -0.054174155 -0.047563434 0.83756727
0.061684426 -0.3673465 -0.50403583 -0.16805586 -0.2913239 -0.5673202 -0.38331294 0.30420527
-0.008073986 -0.12013249 -0.39015746 -0.02927523 -0.05149025 -0.45064422 0.6948498 0.3346835
-0.20062828 -0.5078897 0.0031008457 0.041549817 -0.1819461 0.28764972 -0.3060452 0.49306095
-0.18461148 -0.11434072 -0.50763595 0.16001981 -0.36841956 -0.11776982 0.8822816 -0.07807901
-0.22218479 0.0650724 0.014080237 -0.41527337 -0.37783805 0.10859904 0.45234507 0.25167036
-0.3717254 0.026238577 -0.072919235 -0.18779184 0.28377417 0.18702744 -0.28360415 0.19933316
-0.55162394 -0.31274426 -0.09527587 0.57944626 0.033333294 -0.055089872 -0.3773102 -0.3519599
0.29332742 -0.15688437

fc2.bias f4 [3]
00000000: e97e cd3c c4b5 21be 7ac2 893d
0.02508493 -0.15791994 0.067265466

exp_avg f4 [30, 5]
00000000: defd feb7 585e 81b7 cb07 a5b9 522b 7439
00000010: 522b 74b9 8933 8739 35f9 9139 4290 4939
00000020: bd24 973a bd24 97ba 642d 2638 54a4 08b9
00000030: 5748 1e39 a498 8db9 a498 8d39 8491 e5b8
00000040: a8db d2b8 4884 9937 5aec 11ba 5aec 113a
00000050: 4ced 13ba 6c68 e1b9 8766 91ba 475d 5eba
00000060: 475d 5e3a 0000 0000 0000 0000 0000 0000
00000070: 0000 0000 0000 0000 abdc 6db9 2069 38b9
00000080: fb40 32b9 f877 17ba f877 173a 9870 bcb9
00000090: b07a 62b9 c490 efb9 7e6e 55ba 7e6e 553a
000000a0: 4a6d 9eb9 a11f 27b9 55a6 1cba fe30 0eba
000000b0: fe30 0e3a 0000 0000 0000 0000 0000 0000
000000c0: 7f69 eeb7 7f69 ee37 983c 1b2d 983c 1b2d
000000d0: 0400 0000 7bbe f3b8 7bbe f338 e0a6 0f38
000000e0: 60d9 87b7 8b92 fd3a d709 e9ba d709 e93a
000000f0: 0344 093a d572 6437 b217 10ba 7fe5 913a
00000100: 7fe5 91ba f405 1db7 e49e d0b7 b7b9 8839
00000110: ace5 a0b9 ace5 a039 46a0 d1b7 0400 0080
00000120: 1fea 1838 0af6 3cb8 0af6 3c38 436a 79ba
00000130: af6f 5eb9 386f d8ba 15fe 1bba 15fe 1b3a
00000140: 2ed4 a639 c87a 5639 666b f53a ccec 1dba
00000150: ccec 1d3a bee9 8039 5158 8439 9c69 093b
00000160: be1b b0ba be1b b03a 73b4 3f39 cae6 a2b7
00000170: 30ab ffb9 5952 1b3a 5952 1bba 6114 cab9
00000180: 10de adb9 3d1f 59b9 261b 84ba 261b 843a
00000190: 306b 0ab7 2c64 d038 82a3 82ba 657b 303a
000001a0: 657b 30ba 6c6c 8eb8 88fc 6738 c64a b1ba
000001b0: 6eec aa3a 6eec aaba f450 f0b8 f60b 6bb8
000001c0: 78b4 86ba 562e 1e3a 562e 1eba aafb 063a
000001d0: a0ce d7b5 3434 203b 6c4a daba 6c4a da3a
000001e0: efd4 12b9 cfd2 fab8 b168 5aba ecd7 5939
000001f0: ecd7 59b9 8222 4d39 233b 3a39 1851 713a
00000200: a05b b937 a05b b9b7 3b62 52b8 70f3 9bb7
00000210: 48da 63b7 4831 1db9 4831 1d39 ba2a eab8
00000220: 3010 7837 c15b 77ba 68a2 703a 68a2 70ba
00000230: b064 84b8 be0e 66b9 6077 21b8 dfe1 70ba
00000240: dfe1 703a 0000 0000 0000 0000 0000 0000
00000250: 0000 0000 0000 0000
-3.0397376e-05 -1.542193e-05 -0.0003147706 0.00023285791 -0.00023285791 0.00025787603 0.0002784223 0.00019222594
0.0011531335 -0.0011531335 3.9619757e-05 -0.00013031188 0.00015095003 -0.00027007342 0.00027007342 -0.00010946675
-0.000100544945 1.830062e-05 -0.000556653 0.000556653 -0.0005642965 -0.00042993145 -0.0011093178 -0.00084825273
0.00084825273 0.0 0.0 0.0 0.0 0.0 -0.00022684287 -0.0001758677
-0.0001699961 -0.00057780696 0.00057780696 -0.00035942043 -0.00021598744 -0.0004569349 -0.000814177 0.000814177
-0.00030217535 -0.00015938144 -0.0005975713 -0.00054241705 0.00054241705 0.0 0.0 0.0
-2.8420936e-05 2.8420936e-05 8.8241844e-12 8.8241844e-12 6e-45 -0.00011622623 0.00011622623 3.424927e-05
-1.6194477e-05 0.0019346041 -0.0017779422 0.0017779422 0.000523627 1.3616595e-05 -0.0005496695 0.0011131017
-0.0011131017 -9.359315e-06 -2.4869521e-05 0.0002607831 -0.00030688697 0.00030688697 -2.4989375e-05 -6e-45
3.6457666e-05 -4.5051835e-05 4.5051835e-05 -0.00095144304 -0.00021213175 -0.0016512638 -0.0005950642 0.0005950642
0.00031820073 0.0002045437 0.0018724024 -0.000602436 0.000602436 0.00024588214 0.00025242803 0.002096749
-0.0013436002 0.0013436002 0.00018282402 -1.9419374e-05 -0.00048764935 0.00059250515 -0.00059250515 -0.00038543626
-0.0003316258 -0.0002070637 -0.0010078892 0.0010078892 -8.2503975e-06 9.936871e-05 -0.0009966942 0.00067322544
-0.00067322544 -6.791283e-05 5.530988e-05 -0.0013526313 0.0013040432 -0.0013040432 -0.000114591705 -5.6039506e-05
-0.0010277173 0.0006034126 -0.0006034126 0.0005149195 -1.6078884e-06 0.0024445178 -0.001665426 0.001665426
-0.00014002969 -0.00011960195 -0.000833164 0.0002077517 -0.0002077517 0.00019563179 0.00017760372 0.00092055043
2.2096385e-05 -2.2096385e-05 -5.0159386e-05 -1.85908e-05 -1.3581077e-05 -0.00014991045 0.00014991045 -0.00011165948
1.4785721e-05 -0.00094359746 0.0009179474 -0.0009179474 -6.313005e-05 -0.00021940001 -3.8496568e-05 -0.0009188931
0.0009188931 0.0 0.0 0.0 0.0 0.0

exp_avg_sq f4 [30, 5]
00000000: 034d 8536 35fa 8536 3493 7636 1bfc 5c36
00000010: 1bfc 5c36 8ed3 0c38 11a5 c437 36ff 2c38
00000020: 03ac a737 03ac a737 c0e8 0e37 8a0f 2537
00000030: 57f3 9a36 5b1f 8436 5b1f 8436 e1e0 bb37
00000040: 83e7 aa37 7941 c437 5658 9d37 5658 9d37
00000050: bca6 d536 9cad b636 89be 2a37 b332 c736
00000060: b332 c736 0000 0000 0000 0000 0000 0000
00000070: 0000 0000 0000 0000 f9bf 0936 ec95 d735
00000080: 4269 2b36 a768 b735 a768 b735 96d4 d336
00000090: a245 9f36 16ee e136 281a 7236 281a 7236
000000a0: 1a14 eb36 9bf5 ed36 448a ed36 6be5 8f36
000000b0: 6be5 8f36 0000 0000 0000 0000 0000 0000
000000c0: 816e 1035 816e 1035 a976 1533 a976 1533
000000d0: 1f18 1433 c4c2 f033 c4c2 f033 0d21 1e37
000000e0: 34a2 0f37 2883 9b37 ee27 6b37 ee27 6b37
000000f0: 22c5 2e38 ddc2 2238 ec15 3d38 bf5e e137
00000100: bf5e e137 32e0 1838 5178 1738 0e8c 1838
00000110: 3ae6 2b38 3ae6 2b38 b05f 4437 d9dd 4237
00000120: 7a06 4337 1302 5f37 1302 5f37 05ab e635
00000130: 5e68 9235 7738 8836 0145 5336 0145 5336
00000140: da12 dd37 48c5 a137 9849 3338 ff76 c037
00000150: ff76 c037 e1a3 8036 e871 1d35 c90b 6d37
00000160: 15c9 0c37 15c9 0c37 f967 6738 435a 6338
00000170: ed79 6838 6ac7 f937 6ac7 f937 b75a cc36
00000180: f646 9336 64dd fc36 c261 7336 c261 7336
00000190: 7768 6837 888d 8037 6068 7037 c70c 0137
000001a0: c70c 0137 7815 2139 28a5 1f39 dbbc 1f39
000001b0: ec8a a438 ec8a a438 4ed3 0739 c234 0539
000001c0: 224e 0839 cebe 9a38 cebe 9a38 5b71 6d36
000001d0: 1940 9f36 9a55 6637 117f 0337 117f 0337
000001e0: c33a c538 c326 be38 70d7 c838 7560 5638
000001f0: 7560 5638 9db1 3b37 fa16 0537 98c2 8837
00000200: 85d3 2037 85d3 2037 b304 8637 0d92 8637
00000210: 1099 8237 1be9 6d37 1be9 6d37 e8d4 0639
00000220: 35da 0539 929e 0439 ea75 a238 ea75 a238
00000230: 5736 f037 256a df37 fc53 ef37 4eea c737
00000240: 4eea c737 0000 0000 0000 0000 0000 0000
00000250: 0000 0000 0000 0000
3.972674e-06 3.992837e-06 3.674254e-06 3.29293e-06 3.29293e-06 3.3575627e-05 2.3441886e-05 4.124568e-05
1.998805e-05 1.998805e-05 8.518051e-06 9.838384e-06 4.617886e-06 3.937557e-06 3.937557e-06 2.2396855e-05
2.0373385e-05 2.3395509e-05 1.8756993e-05 1.8756993e-05 6.367305e-06 5.4442335e-06 1.0177152e-05 5.9365643e-06
5.9365643e-06 0.0 0.0 0.0 0.0 0.0 2.0526334e-06 1.6062381e-06
2.5542254e-06 1.366502e-06 1.366502e-06 6.3130383e-06 4.7466756e-06 6.7332394e-06 3.6076035e-06 3.6076035e-06
7.005886e-06 7.0917426e-06 7.0792466e-06 4.28844e-06 4.28844e-06 0.0 0.0 0.0
5.3804985e-07 5.3804985e-07 3.4799687e-08 3.4799687e-08 3.4480873e-08 1.12112986e-07 1.12112986e-07 9.425229e-06
8.56123e-06 1.8538514e-05 1.4016388e-05 1.4016388e-05 4.1668427e-05 3.880529e-05 4.5081528e-05 2.686621e-05
2.686621e-05 3.6448422e-05 3.611326e-05 3.637006e-05 4.0983992e-05 4.0983992e-05 1.1704789e-05 1.1614954e-05
1.1624414e-05 1.3292319e-05 1.3292319e-05 1.7186109e-06 1.0908223e-06 4.059689e-06 3.1481616e-06 3.1481616e-06
2.6354031e-05 1.9284562e-05 4.2745465e-05 2.2943595e-05 2.2943595e-05 3.8337753e-06 5.8652813e-07 1.4129045e-05
8.391468e-06 8.391468e-06 5.5171524e-05 5.420508e-05 5.5426663e-05 2.9775973e-05 2.9775973e-05 6.0902344e-06
4.3892023e-06 7.5359585e-06 3.6266724e-06 3.6266724e-06 1.38526e-05 1.5324695e-05 1.4329416e-05 7.691974e-06
7.691974e-06 0.00015362154 0.00015224947 0.00015233776 7.8460056e-05 7.8460056e-05 0.0001295332 0.00012703522
0.00012999077 7.3788324e-05 7.3788324e-05 3.5381734e-06 4.746031e-06 1.3728999e-05 7.837793e-06 7.837793e-06
9.404637e-05 9.067126e-05 9.5768715e-05 5.111141e-05 5.111141e-05 1.1187422e-05 7.932767e-06 1.6303078e-05
9.585991e-06 9.585991e-06 1.5976233e-05 1.6042055e-05 1.5568483e-05 1.4180575e-05 1.4180575e-05 0.0001285855
0.00012765157 0.00012647573 7.746725e-05 7.746725e-05 2.8635533e-05 2.6633099e-05 2.8530128e-05 2.3831755e-05
2.3831755e-05 0.0 0.0 0.0 0.0 0.0

exp_avg f4 [30]
00000000: b69b 98b9 6e9b c0b9 1ecc a6ba 3c76 2d38
00000010: ea20 e2b8 0000 0000 a0ad a237 ccd9 9db9
00000020: 9e53 f8b8 440a 0938 4be0 f8b8 db83 643a
00000030: e842 f5b9 faa8 1239 24e3 2e38 08f6 f138
00000040: d8a4 c239 b65d 4d3a 0e4c dcb9 457b adb9
00000050: 7d89 da38 6bef 0bba e5f7 bbb9 0c85 5c3a
00000060: fd64 83b9 a20d 4d39 2638 7a39 2683 00ba
00000070: 103b 1538 0000 0000
-0.00029107713 -0.00036736898 -0.0012725627 4.135653e-05 -0.000107826505 0.0 1.9392755e-05 -0.00030107645
-0.000118411364 3.2672906e-05 -0.00011867339 0.0008717158 -0.0004677989 0.00013986594 4.1696374e-05 0.000115376024
0.00037125382 0.00078340934 -0.00042018335 -0.00033088974 0.00010420659 -0.0005338105 -0.00035852115 0.00084121595
-0.0002506151 0.00019555402 0.00023862775 -0.0004902355 3.5579375e-05 0.0

exp_avg_sq f4 [30]
00000000: 1524 bc36 5270 4b38 1c72 5037 cb94 fe37
00000010: 5124 8137 0000 0000 6525 3f36 4dca 0c37
00000020: 3137 2d37 0aeb 4835 458d 2834 031a 1838
00000030: 0dd5 4138 820e 5b38 bd16 9037 63cd 9d37
00000040: 8fdf a538 1a85 3438 644d 8e38 8b6c 1737
00000050: eb42 9a37 1d63 2a39 1298 1639 0fb1 3f38
00000060: fad4 db38 fe00 dd37 5058 c537 057b 1439
00000070: 5c8d 2438 0000 0000
5.607037e-06 4.8503578e-05 1.2424334e-05 3.0348447e-05 1.539491e-05 0.0 2.8482984e-06 8.391752e-06
1.0324454e-05 7.484783e-07 1.5697613e-07 3.626385e-05 4.6213205e-05 5.222718e-05 1.7176726e-05 1.88115e-05
7.909454e-05 4.3039305e-05 6.785503e-05 9.0255735e-06 1.8389392e-05 0.00016249386 0.00014361765 4.5702847e-05
0.00010482404 2.6345715e-05 2.3525354e-05 0.00014160208 3.9232298e-05 0.0

exp_avg f4 [3, 30]
00000000: 989d 2d3b 368a 8d3a 076e c638 bf21 8739
00000010: b23e 513a 0000 0000 5d8c 9238 8494 c339
00000020: a67c e039 bda7 a136 9367 95ad f1a8 2d3b
00000030: b76a 4e3b 98a2 d73a 598e 2136 ff41 26ba
00000040: 3a2a cc3a ff20 d73a a2fb 7c3b f242 6339
00000050: dcdf 9a3a b072 fd3a a220 343b 4eec 6cba
00000060: bea6 8e3b a0d7 e03a d206 ea3a f8ac b63a
00000070: b7a1 0aba 0000 0000 5e65 68ba 2faa d6b9
00000080: dd41 7738 00ec 7d37 83ec 813b 0000 0000
00000090: d3cf b03a 23c7 e73a 462d e83a 9e79 8db4
000000a0: 0000 0000 e9ab 2dba 6c7e 75ba 4db9 15ba
000000b0: 0a61 a436 34b3 df3a a9dc d9b9 c62f 0aba
000000c0: cc3f 9eba 9f54 a83a cba8 f93a d505 0cba
000000d0: 17f2 63ba 8361 f7b9 b4f9 a9ba 7449 99b9
000000e0: c041 23ba 0679 25ba 5422 1d39 0000 0000
000000f0: a20a cd38 f4de 96b9 6eb3 82b9 7f49 8bb7
00000100: e09f 6aba 0000 0000 c0ce bdb9 f4fb abb9
00000110: a380 d9b9 0000 0000 ae8d f5b7 c872 07b9
00000120: ce37 d138 f500 8fb8 0400 0000 19f1 ecb9
00000130: b1ed 0eba 566f aeb9 d78e f338 cf7f beb9
00000140: 71c6 1bba bb26 9bb9 fe10 94b9 62f6 02ba
00000150: c056 94b9 0a24 c2b9 49a1 1438 3051 4db7
00000160: 5227 b2b9 0000 0000
0.0026491638 0.0010798636 9.46187e-05 0.0002577435 0.00079820596 0.0 6.987967e-05 0.0003730395
0.0004281748 4.817701e-06 -1.6985335e-11 0.0026498402 0.0031496712 0.0016451655 2.4073727e-06 -0.00063422316
0.0015576549 0.0016413032 0.0038602133 0.00021673346 0.0011815983 0.0019336548 0.002748527 -0.00090378977
0.0043533733 0.0017154105 0.0017854816 0.0013937047 -0.00052883796 0.0 -0.00088652025 -0.00040944057
5.895073e-05 1.5134923e-05 0.003964962 0.0 0.0013489671 0.0017683249 0.0017713688 -2.6351785e-07
0.0 -0.0006625043 -0.00093648466 -0.0005711511 4.8988777e-06 0.0017066956 -0.0004155387 -0.0005271401
-0.0012073456 0.0012842602 0.0019047497 -0.0005341445 -0.0008695437 -0.00047184163 -0.0012968094 -0.0002923716
-0.0006227754 -0.00063122844 0.00014985475 0.0 9.777142e-05 -0.00028776343 -0.00024929218 -1.6604316e-05
-0.0008950215 0.0 -0.0003620293 -0.0003280338 -0.00041485307 0.0 -2.927225e-05 -0.00012917363
9.976291e-05 -6.8189496e-05 6e-45 -0.0004519306 -0.0005452289 -0.00033270818 0.00011613749 -0.0003633485
-0.0005942351 -0.0002959276 -0.0002824142 -0.00049958203 -0.00028293394 -0.00037029415 3.543616e-05 -1.2237855e-05
-0.00033980102 0.0

exp_avg_sq f4 [3, 30]
00000000: 3002 e33a a050 4338 1506 7634 02af 8d3a
00000010: 97ed 6138 0000 0000 d444 d137 ec1d e536
00000020: 5c10 c537 436b 9f35 2c33 1831 ee48 e537
00000030: da5f 5a39 2b06 7c3a 01d7 5b39 c377 c136
00000040: bc87 9f38 1faf 3c38 b44e cf3b 268d ed37
00000050: ad2c 3139 cb2a ac39 aabf 2e3a 5736 1638
00000060: 05ec 0b3c 2b32 6638 155d 563b 2485 153a
00000070: 7e94 d439 0000 0000 45df 7938 cafe f737
00000080: eecf 6435 7e92 5737 c9b8 a738 0000 0000
00000090: 3d42 1e37 c5db 2437 850d 9337 94b6 8e2f
000000a0: 0000 0000 d4d2 9237 ef92 7a38 9866 ce36
000000b0: 37f9 f333 0db9 2b37 9571 1638 d39c 9637
000000c0: 491b 5139 f466 3737 35db 1a39 6462 9338
000000d0: 38cb 9a38 9a5b c836 02cc 9639 c3e0 ef37
000000e0: 0c26 3438 88ce 4d38 2a5f d536 0000 0000
000000f0: 7132 be36 6e1a 4536 7714 7936 3117 1d36
00000100: 3eae 0a38 0000 0000 01e8 6236 f3f9 5a36
00000110: 5fa9 0e37 0000 0000 4a41 8131 918a 4336
00000120: 4f09 b436 e949 a535 7cda 8133 b3ab 9b36
00000130: b799 e036 03e1 5d36 4428 bc37 f253 7f36
00000140: 9552 1c38 9a56 5437 9a18 5837 36ea a336
00000150: fc9b 5638 edab 8836 a29c aa36 02bb 2637
00000160: ffb1 1f37 0000 0000
0.0017319378 4.656671e-05 2.2912748e-07 0.0010809603 5.3865453e-05 0.0 2.4946792e-05 6.828215e-06
2.3491848e-05 1.187764e-06 2.2148e-09 2.7332888e-05 0.00020825808 0.0009613956 0.00020965563 5.7657903e-06
7.606993e-05 4.4985787e-05 0.006326521 2.8318329e-05 0.00016896678 0.0003283828 0.00066661334 3.5813395e-05
0.008540158 5.4882996e-05 0.003270929 0.00057037384 0.00040546426 0.0 5.9574162e-05 2.956334e-05
8.5239196e-07 1.28491065e-05 7.9975995e-05 0.0 9.432956e-06 9.826331e-06 1.7530061e-05 2.595938e-10
0.0 1.750273e-05 5.9741487e-05 6.151222e-06 1.1360901e-07 1.023548e-05 3.586857e-05 1.795442e-05
0.00019941958 1.0931621e-05 0.00014768245 7.027833e-05 7.381145e-05 5.9711283e-06 0.00028762227 2.8595683e-05
4.2950778e-05 4.9068156e-05 6.358973e-06 0.0 5.6683134e-06 2.9370672e-06 3.7115803e-06 2.3408322e-06
3.306404e-05 0.0 3.3811668e-06 3.263002e-06 8.503294e-06 0.0 3.7618166e-09 2.913792e-06
5.3655017e-06 1.2314969e-06 6.046773e-08 4.6393484e-06 6.693615e-06 3.306254e-06 2.2430097e-05 3.8046824e-06
3.727021e-05 1.2656348e-05 1.2880331e-05 4.8850443e-06 5.1166848e-05 4.0731306e-06 5.0846293e-06 9.937912e-06
9.5185815e-06 0.0

exp_avg f4 [3]
00000000: f25f d63a 2de3 37ba 9c96 26ba
0.0016355498 -0.0007014748 -0.000635484

exp_avg_sq f4 [3]
00000000: 8a44 5a3b 30c8 c438 f2e4 d737
0.0033305013 9.383296e-05 2.5736608e-05
